mtac-cyber-security/models/anomaly_detector.pth (torch, 14401 bytes, 5 tensors)

fc1.weight f4 [64, 10]
0	0x3e9abbf1	0.30221513
1	0x3e4b3e7a	0.19848052
2	0xbd6bb6d0	-0.05754739
3	0x3e95525b	0.29164395
4	0x3dad0c08	0.084495604
5	0xbcf2c3c0	-0.029634356
6	0xbe8c4974	-0.2739979
7	0xbe8417ba	-0.25799352
8	0x3e1ddfca	0.154174
9	0xbd006c38	-0.031353205
10	0x3e95099d	0.29108897
11	0x3d89add0	0.06722605
12	0xbd089e58	-0.033354133
13	0xbe0b052f	-0.13576196
14	0x3e39bb7e	0.18137929
15	0xbd9fde42	-0.07806064
16	0x3e17fdfc	0.14842981
17	0x3e43b95a	0.19113675
18	0x3e609aee	0.21934101
19	0x3dc51634	0.096233755
20	0xbe1aad1a	-0.15105096
21	0x3e6603a6	0.2246233
22	0xbe6050b8	-0.21905792
23	0xbcbdf3b0	-0.023187488
24	0x3e919edb	0.2844151
25	0x3e307110	0.1723063
26	0xbe373cd0	-0.17894292
27	0xbe8ba228	-0.27272153
28	0xbc9fcb50	-0.019506127
29	0x3e29caca	0.16581264
30	0xbe2014ea	-0.15632978
31	0xbc5285a0	-0.0128492415
32	0xbe925dc2	-0.28587157
33	0xbe7d8b48	-0.24760163
34	0x3d959c24	0.07305172
35	0x3dc1c910	0.09462178
36	0x3e6a1eaa	0.2286326
37	0x3df11144	0.11770871
38	0x3e6095c2	0.21932128
39	0x3e811371	0.25210145
40	0xbd903514	-0.07041374
41	0xbe88df3a	-0.26732808
42	0x3d453d80	0.048154354
43	0x3d8be498	0.0683071
44	0x3e4819da	0.19541112
45	0xbe41efeb	-0.18939178
46	0x3c4d2be0	0.012522668
47	0xbbd265c0	-0.006420821
48	0xbe9cc35d	-0.306178
49	0xbe4b405a	-0.19848767
50	0x3e05ea0c	0.13077563
51	0x3d766090	0.060150683
52	0xbe8484cd	-0.2588257
53	0xbc9f2100	-0.019424915
54	0xbe83cef1	-0.2574382
55	0xbe6fad2e	-0.23405907
56	0x3dca09ec	0.09865174
57	0x3cbc3cc0	0.022978187
58	0x3e01ff08	0.12694943
59	0xbe86d804	-0.26336682
60	0xbd81dfa4	-0.06341484
61	0xbe087438	-0.13325584
62	0x3e1056c8	0.14095604
63	0x3c3ee300	0.011650801
64	0x3e7a92ca	0.24470058
65	0xbe729cdc	-0.2369265
66	0xbdbe8b2a	-0.09303887
67	0xbe9db231	-0.30800012
68	0x3ea0e75b	0.3142651
69	0xbe576d82	-0.21037868
70	0x3cc4cef0	0.024024457
71	0xbe98a6ee	-0.29814857
72	0xbdb9edda	-0.0907857
73	0x3e935e01	0.28782657
74	0xbe20c256	-0.15699133
75	0x3e8e5f3d	0.27807036
76	0xbe2af636	-0.16695485
77	0xbd807194	-0.06271663
78	0x3e25d30e	0.16193792
79	0xbd9f0372	-0.07764329
80	0xbe9b0756	-0.30279034
81	0x3e0b990a	0.13632599
82	0xbd593270	-0.053026617
83	0x3e3b1d52	0.18272904
84	0xbdd41f7c	-0.10357568
85	0xbe9c9f0b	-0.3059009
86	0x3d4cc008	0.049987823
87	0x3de3e7b4	0.11128178
88	0x3d002450	0.03128463
89	0xbe68eb34	-0.22745973
90	0xbd0e2878	-0.034706563
91	0x3e0921e0	0.13391829
92	0xbd1d2018	-0.038360685
93	0xbce05b70	-0.02738735
94	0x3dc785a0	0.09742284
95	0xbd8cc024	-0.068725854
96	0xbe73587a	-0.2376422
97	0x3da5d5f4	0.08097449
98	0x3dac6834	0.08418313
99	0x3dd16350	0.102240205
100	0xbe56b433	-0.20967178
101	0x3e9ad657	0.30241653
102	0xbd7524e8	-0.05984965
103	0xbe86fac5	-0.26363197
104	0x3d95154c	0.07279453
105	0x3e9583ad	0.29202023
106	0x3dc85fd0	0.097839
107	0xbe0aa201	-0.13538362
108	0xbe9377c4	-0.2880231
109	0x3d40ef30	0.047103107
110	0x3d977cbc	0.07396838
111	0xbe0eb5f1	-0.13936593
112	0xbb97cac0	-0.004632324
113	0xbe357d78	-0.17723644
114	0x3e9aaa01	0.30207828
115	0x3e952ff5	0.2913815
116	0x3d879138	0.06619495
117	0x3ddd9a84	0.10820487
118	0x3d9e6324	0.07733753
119	0xbd8e082a	-0.06935151
120	0x3c832d30	0.016012758
121	0x3e56bee6	0.2097126
122	0x3d47ce80	0.048780918
123	0x3e34ff9e	0.17675635
124	0xbd207d30	-0.039181888
125	0xbdf20d62	-0.11818959
126	0xbd268bf8	-0.04066083
127	0x3d35b6d8	0.044363827
128	0x3e9f5a8b	0.31123766
129	0x3e8c7dcd	0.27439728
130	0xbe38c888	-0.18045247
131	0xbdcf6d20	-0.10128236
132	0x3baaa140	0.005207211
133	0xbd321240	-0.043474436
134	0xbdab494a	-0.08363588
135	0x3e2d0fc2	0.16900542
136	0xbe898269	-0.26857308
137	0x3e8f4a37	0.2798631
138	0xbe8b4578	-0.27201438
139	0xbe84f6e4	-0.25969613
140	0x3d546598	0.0518547
141	0xbd539a40	-0.051660776
142	0xbd4b9400	-0.04970169
143	0x3e036df8	0.12834918
144	0xbdcd6b18	-0.10030192
145	0xbcf716e0	-0.030162275
146	0xbd264800	-0.04059601
147	0x3e23f22a	0.16010347
148	0xbe760e8e	-0.2402899
149	0x3d0dcbe0	0.03461826
150	0xbe9407e1	-0.2891226
151	0xbe929c76	-0.28634995
152	0x3bbb5940	0.0057174265
153	0x3da32ee0	0.07967925
154	0xbd562e30	-0.05229014
155	0x3d850804	0.064956695
156	0xbd262fc8	-0.04057291
157	0xbe9b8382	-0.3037377
158	0x3e9e7d07	0.30954763
159	0xbc5e8180	-0.01358068
160	0xbdbc27da	-0.091872886
161	0x3e577cfe	0.21043774
162	0x3dcade4c	0.09905681
163	0x3cc54220	0.024079382
164	0xbe87a0e1	-0.26489928
165	0xbe60a939	-0.21939553
166	0x3e619466	0.22029266
167	0x3d4c52e8	0.049883753
168	0xbbe7cac0	-0.00707373
169	0xbda81952	-0.082079545
170	0x3e2dace2	0.16960481
171	0xbd2b5da8	-0.041837364
172	0x3e8dba79	0.2768133
173	0xbe821e58	-0.25413775
174	0x3d3edf40	0.046599627
175	0xbd910992	-0.070819035
176	0x3e04cb54	0.12968189
177	0x3dbe2efc	0.09286305
178	0x3e869cb7	0.2629144
179	0x3e85ada9	0.26109055
180	0x3e97bbb1	0.29635385
181	0x3e90e147	0.28296873
182	0x3e81370b	0.25237307
183	0x3e617f96	0.22021326
184	0x3d0e7c70	0.03478664
185	0xbe3663b4	-0.17811471
186	0xbd2560f0	-0.04037565
187	0x3e022dd4	0.12712795
188	0x3dc5777c	0.096419305
189	0x3e2d0a8a	0.16898552
190	0x3e50f1da	0.20404759
191	0xbe9874b2	-0.2977653
192	0x3e45add2	0.19304588
193	0xbe4e6b87	-0.20158206
194	0xbcd76130	-0.02629146
195	0xbe6d3f89	-0.23168768
196	0xbe9785a1	-0.29594138
197	0xbde6ac98	-0.112633884
198	0x3e1ee9ee	0.15518925
199	0xbe4a6a6a	-0.19767156
200	0x3e9ec2b3	0.3100792
201	0xbd1488e0	-0.036263347
202	0x3e68171a	0.22665063
203	0x3e1a0f48	0.15044892
204	0x3d15d718	0.036582083
205	0x3e8e2f1b	0.27770314
206	0x3dae0854	0.08497682
207	0xbe705622	-0.23470357
208	0xbe6d5652	-0.2317746
209	0xbda50d20	-0.08059144
210	0x3cbe0c70	0.02319929
211	0xbdc24b36	-0.094870016
212	0x3de04d64	0.10952261
213	0xbd6367e0	-0.055518985
214	0xbe449fe4	-0.19201618
215	0xbe07d2bc	-0.13263983
216	0xbdcf66fa	-0.10127063
217	0xbd49fa68	-0.04931107
218	0x3d437460	0.047718406
219	0xbb1e1c00	-0.0024125576
220	0xbe9ec4a8	-0.31009412
221	0x3db99580	0.09061718
222	0xbe15efab	-0.14642207
223	0xbd5dec88	-0.054180652
224	0x3e68eb8e	0.22746107
225	0xbd322b48	-0.043498307
226	0xbda49978	-0.08037084
227	0x3e11a878	0.14224422
228	0x3e587d3a	0.2114152
229	0xbdd7a7f8	-0.10530084
230	0xbe612b6e	-0.21989223
231	0x3e9bc071	0.3042026
232	0x3e293c98	0.16527021
233	0x3e894b49	0.2681525
234	0x3e9b4d53	0.3033243
235	0x3c9e8b20	0.01935345
236	0x3d519e78	0.05117652
237	0x3d02ca30	0.031931102
238	0x3cecff20	0.028930247
239	0x3e018c90	0.12651277
240	0xbd1579a8	-0.036492974
241	0xbe0712c9	-0.1319076
242	0xbe58e0fa	-0.21179572
243	0x3e34e498	0.17665327
244	0x3e08c792	0.1335738
245	0xbe977abb	-0.29585823
246	0xbe0fc1e8	-0.14038813
247	0xbddb1f02	-0.10699274
248	0x3e642b02	0.22282031
249	0xbdcf9206	-0.10135274
250	0xbe880d31	-0.26572564
251	0xbdf4f3de	-0.119605765
252	0x3e0eeeba	0.13958254
253	0x3e863f3b	0.26220116
254	0x3e4811f6	0.19538102
255	0xbdd0e0e8	-0.101991475

fc1.bias f4 [64]
0	0x3e47b1da	0.19501439
1	0x3e9b5927	0.30341455
2	0x3e2a1d42	0.16612723
3	0xbe6ad8f2	-0.2293432
4	0x3e4d545e	0.20051715
5	0xbcc9c260	-0.024628818
6	0xbca446a0	-0.020053208
7	0x3dcfe778	0.10151571
8	0x3d70b058	0.058761925
9	0x3e8eb8e1	0.27875426
10	0x3db4c14c	0.08825931
11	0x3cd8cbf0	0.026464432
12	0x3e39fe08	0.18163311
13	0x3e407fb2	0.18798712
14	0x3e7f51c6	0.24933538
15	0xbb272080	-0.002550155
16	0xbdef0cd4	-0.11672369
17	0x3e51c6da	0.20486012
18	0xbc0f4c00	-0.008746147
19	0x3e82c4f3	0.25540885
20	0x3de06808	0.109573424
21	0xbe854fa8	-0.26037335
22	0xbe968d8f	-0.29404876
23	0x3d3c3838	0.045952052
24	0x3e78f636	0.24312672
25	0x3dfea724	0.12434223
26	0xbe5be97a	-0.21475783
27	0xbcc2eee0	-0.023795545
28	0xbe05e74c	-0.13076514
29	0xbd843880	-0.06456089
30	0x3dfe6120	0.12420869
31	0x3d027a80	0.031855106
32	0xbd36db70	-0.044642866
33	0x3e8ec5d1	0.27885297
34	0xbe1fd145	-0.15607174
35	0xbd7353c8	-0.059406072
36	0x3e2185d8	0.15773714
37	0x3e01419a	0.12622681
38	0xbe22c5ae	-0.15895721
39	0x3e8c177b	0.27361664
40	0x3e6fb76e	0.23409817
41	0xbe550c47	-0.20805465
42	0xbdc136de	-0.09434293
43	0x3e234e80	0.15947914
44	0x3e523842	0.20529273
45	0x3c9e8690	0.019351274
46	0xbd9b32bc	-0.07578036
47	0xbe924677	-0.28569385
48	0xbdab20bc	-0.08355853
49	0x3e1eeda8	0.15520346
50	0xbe959bf1	-0.29220536
51	0x3d52d058	0.051468223
52	0xbb904dc0	-0.0044038
53	0x3d2a4520	0.04156983
54	0xbdff8ff8	-0.12478632
55	0xbd9895a8	-0.0745042
56	0xbe9cdfe2	-0.3063956
57	0xbe1f917b	-0.1558284
58	0xbe6efb04	-0.23337942
59	0xbe3b88a9	-0.1831385
60	0x3e94c9dd	0.2906026
61	0x3ea1165b	0.31462368
62	0xbca38190	-0.019959241
63	0x3d3be140	0.045869112

fc2.weight f4 [32, 64]
0	0xba5eda00	-0.00085011125
1	0x3dadea8a	0.084920004
2	0x3db4c918	0.08827418
3	0x3da98198	0.08276671
4	0xbdbeafb0	-0.093108535
5	0x3d026b14	0.0318404
6	0x3d823b46	0.06358962
7	0x3d895212	0.06705107
8	0x3df13386	0.117774054
9	0xbd6d0c4c	-0.057873055
10	0x3cbab048	0.022789136
11	0x3de3a194	0.11114803
12	0xbca2ec98	-0.019888207
13	0x3c7995d0	0.015233472
14	0xbbda5940	-0.0066634715
15	0x3db88dc8	0.090114176
16	0xbdb25852	-0.08708252
17	0xbcd62f90	-0.026145726
18	0x3d30aa14	0.04313095
19	0xbd5cb790	-0.053885996
20	0x3d6ce510	0.05783564
21	0xbc25ea50	-0.010126665
22	0xbd279358	-0.040912002
23	0xbcc23500	-0.023706913
24	0x3cd73538	0.026270494
25	0xbdd1ce38	-0.10244411
26	0x3de07a7c	0.10960862
27	0xb9c94e00	-0.00038395822
28	0xbcf3e610	-0.029772788
29	0x3cd85798	0.026408955
30	0x3cf34a68	0.029698566
31	0x3cc02b30	0.023458093
32	0x3dfab964	0.12242392
33	0xbd47f30c	-0.048815772
34	0x3d84e978	0.06489843
35	0x3c9890c8	0.018623725
36	0x3d0755b0	0.033040702
37	0x3dac5288	0.08414179
38	0x3d8dcde2	0.06924035
39	0xbdb6619e	-0.08905338
40	0x3d897580	0.067118645
41	0xbda2abd4	-0.0794293
42	0xbd5c9934	-0.053857043
43	0x3dc188ca	0.094499186
44	0xbd719de8	-0.05898848
45	0x3dd027ae	0.10163818
46	0x3d3c38d8	0.045952648
47	0x3dc6d1e8	0.09708005
48	0xbdf4397e	-0.11925028
49	0xbdd97dda	-0.106197074
50	0x3dfae594	0.1225082
51	0x3da7b8e2	0.081895605
52	0x3dd2114a	0.10257204
53	0xbd92849e	-0.07154201
54	0xbdaa06cc	-0.08302078
55	0xbd98630c	-0.07440767
56	0x3dd6f506	0.10495953
57	0x3da7b636	0.08189051
58	0x3d12d2cc	0.035845563
59	0xbd8563b8	-0.065131605
60	0x3de2aab2	0.11067714
61	0xbd7d384c	-0.061821267
62	0xbdb4381a	-0.08799763
63	0xbc339b90	-0.010962382
64	0x3d393698	0.04521808
65	0x3de1c0e0	0.11023116
66	0x3b79f440	0.003813997
67	0x3d912d70	0.07088745
68	0xbd09effc	-0.033676133
69	0xbdb2dd92	-0.087336674
70	0xbcea8a60	-0.028630435
71	0xbd75acd8	-0.05997929
72	0x3dc622fa	0.0967464
73	0xbde446ee	-0.11146341
74	0x3d867c64	0.065666944
75	0x3b0e6000	0.00217247
76	0x3ad9e500	0.0016624033
77	0x3db897a4	0.09013298
78	0xbce7f5a8	-0.02831538
79	0x3de93ca2	0.11388518
80	0x3d16981c	0.036766157
81	0x3dfa6aa4	0.12227371
82	0x3deeb0b4	0.11654797
83	0xbd851f66	-0.065001294
84	0xbd9c363c	-0.07627532
85	0x3ceeafe8	0.029136613
86	0xbdaddc58	-0.08489293
87	0x3d31de10	0.043424666
88	0xbdb06b72	-0.086142436
89	0x3d29bb0c	0.041438147
90	0xbdc3f208	-0.09567648
91	0x3db36ec4	0.08761361
92	0xbd6620c0	-0.056183577
93	0xbca38600	-0.019961357
94	0x3d08aa10	0.03336531
95	0xba7dab00	-0.0009676665
96	0xbc5e9fa0	-0.013587862
97	0xbbfc0440	-0.0076909363
98	0x3cde9ad8	0.027173445
99	0x3d7638f4	0.06011291
100	0x3d6b2608	0.057409316
101	0x3c06d650	0.008229807
102	0xbdd55468	-0.1041649
103	0x3dfe2136	0.12408678
104	0xbdca1840	-0.098679066
105	0x3c15a950	0.0091346055
106	0x3d9fe4fa	0.07807346
107	0x3d941ce4	0.07232073
108	0xbd88500e	-0.06655894
109	0x3cdc0ba8	0.026861027
110	0xbdd0035c	-0.10156891
111	0xbdea462a	-0.11439164
112	0xbd836b92	-0.06417002
113	0x3d33bda4	0.043882027
114	0xbcaafdd8	-0.020872995
115	0x3cfa3570	0.03054306
116	0xbdbe9cee	-0.09307276
117	0x3dbe5c28	0.09294921
118	0xbd721a10	-0.059106886
119	0xbd629448	-0.055317193
120	0x3da50962	0.0805843
121	0x3d7c3c60	0.061581016
122	0xbda3e996	-0.08003537
123	0xbdc87c26	-0.097893044
124	0x3d40fddc	0.0471171
125	0xbcce4ca8	-0.025183037
126	0xbd8b7794	-0.06809917
127	0xbd9e2cf2	-0.077234164
128	0xbdcaca84	-0.09901908
129	0x3d7e1eb8	0.062041014
130	0xbd2756d4	-0.04085429
131	0x3d6b2600	0.057409286
132	0xbb0d3640	-0.0021547228
133	0x3d0b6894	0.03403528
134	0xbdd62b4e	-0.104574785
135	0x3deffce6	0.117181584
136	0x3de7c12a	0.1131614
137	0xbd5cea34	-0.05393429
138	0x3df1f7fc	0.118148774
139	0xbdc248ee	-0.094865665
140	0x3d2ef008	0.04270938
141	0x3d2fbe38	0.042906016
142	0x3d982d48	0.07430512
143	0xbd673cec	-0.056454584
144	0x3db8357c	0.08994576
145	0x3dc26e18	0.09493655
146	0x3d80ea6e	0.06294714
147	0xbbd46fe0	-0.006483063
148	0x3c93b9d8	0.018032953
149	0xbdc88392	-0.0979072
150	0x3d0b5bd8	0.034023136
151	0xbd6fe16c	-0.05856459
152	0x3d7636cc	0.060110852
153	0xbcbb2db0	-0.022848934
154	0x3d86957e	0.06571482
155	0x3d445b70	0.047938764
156	0x3db86790	0.09004128
157	0x3dc2c54e	0.09510289
158	0x3de9dfd2	0.114196435
159	0x3db90cd4	0.0903565
160	0x3cd15f88	0.025558248
161	0x3d4b0518	0.049565405
162	0x3dc9c4d4	0.09851995
163	0xbd4e1c04	-0.050319687
164	0x3cd57018	0.026054427
165	0xbd298cb0	-0.041393936
166	0xbdbc8bc2	-0.09206344
167	0x3d2a9e54	0.0416549
168	0x3dc6aea8	0.09701282
169	0x3d756ae8	0.059916407
170	0x3df80b02	0.121114746
171	0xbdb1215c	-0.08648941
172	0x3ba7ede0	0.0051247925
173	0xbdf90d92	-0.121607915
174	0xbdf8edc2	-0.12154724
175	0x3d722034	0.059112743
176	0xbd57ce74	-0.052687123
177	0x3d17bd30	0.037045658
178	0x3c06ce70	0.0082279295
179	0xbd48a1cc	-0.048982427
180	0xbce122d8	-0.027482435
181	0x3c93c2c0	0.0180372
182	0x3d81adaa	0.06331952
183	0xbd6936a4	-0.056936875
184	0x3dcbbd8c	0.099482626
185	0xbdd6a120	-0.10479951
186	0xbcf56ee8	-0.02996011
187	0x3dc61cf6	0.096734926
188	0xbd99673e	-0.07490395
189	0x3cd78278	0.02630733
190	0xbdc66eee	-0.09689127
191	0xbccd1ba0	-0.025037587
192	0xbc944800	-0.018100739
193	0x3db949f4	0.090473086
194	0x3da90f62	0.08254887
195	0x3df67cf4	0.12035552
196	0x3a609400	0.00085669756
197	0xbcbde878	-0.023182139
198	0xbb543b40	-0.0032383949
199	0xbddfc494	-0.10926166
200	0xbd1aa630	-0.037756145
201	0xbdcfb88a	-0.1014262
202	0x3d90ebd6	0.07076232
203	0x3ddec196	0.10876767
204	0xbdf6bc2a	-0.12047608
205	0xbdc4f832	-0.09617652
206	0xbde22746	-0.11042647
207	0xbde1c4b2	-0.11023845
208	0xbdaf92e6	-0.085729405
209	0x3db93e66	0.09045105
210	0x3dd0486c	0.101700634
211	0x3d61e990	0.055154383
212	0x3cd7de58	0.026351139
213	0xbd007118	-0.031357855
214	0xbde05dfa	-0.109554246
215	0x3b16b580	0.0022996366
216	0x3c4ff490	0.012692586
217	0x3caa56f8	0.020793423
218	0xbb8278a0	-0.003981665
219	0xbde9e1de	-0.11420034
220	0xbdca4bb2	-0.09877719
221	0xbd4d07ec	-0.050056383
222	0x3deb21c4	0.1148105
223	0xbd823a22	-0.06358744
224	0x3bfa41a0	0.0076372176
225	0xbc0ffc40	-0.008788168
226	0xbdd4164a	-0.10355814
227	0x3d0b9530	0.034077823
228	0xbd42287c	-0.04740189
229	0xbd36c328	-0.04461971
230	0xbdb3d50c	-0.0878087
231	0x3de20bba	0.11037393
232	0xbcc5e2d0	-0.024156004
233	0xbd849de4	-0.06475428
234	0xbd9f07ec	-0.07765183
235	0x3daab55c	0.08335373
236	0x3d3dc4a0	0.046330094
237	0x3d67246c	0.05643122
238	0x3dfed6b2	0.12443294
239	0xbd689b20	-0.056788564
240	0x3cbbdf78	0.022933707
241	0xbd9669a6	-0.073443696
242	0xbcd05240	-0.025429845
243	0xbde35558	-0.111002624
244	0xbd7c03ac	-0.06152694
245	0x3d26b348	0.04069832
246	0xbd9a9296	-0.0754749
247	0xbb865ce0	-0.004100427
248	0x3d971688	0.07377344
249	0x3d62f088	0.05540517
250	0x3dbfa978	0.093584955
251	0x3c781060	0.015140623
252	0x3cc62d80	0.024191618
253	0xbd5a1e5c	-0.05325161
254	0xbda0ef84	-0.07858184
255	0xbd8d3fc8	-0.06896931

fc2.bias f4 [32]
0	0x3dda866e	0.10670172
1	0xbb4d67c0	-0.0031342357
2	0x3c4258c0	0.01186198
3	0x3c9f8ba0	0.019475758
4	0xbdcbb9fc	-0.09947583
5	0xbd5ee79c	-0.0544201
6	0xbddc1d40	-0.107477665
7	0xbd5b665c	-0.053564414
8	0x3dacb916	0.0843374
9	0xbcb6d230	-0.022317022
10	0xbbbc8a80	-0.005753815
11	0xbde326cc	-0.11091384
12	0xbdea0ca4	-0.11428192
13	0xbd231a0c	-0.039819762
14	0x3d284f68	0.041091353
15	0xbda25474	-0.079262644
16	0x3bfd0620	0.0077216774
17	0x3dec9b6a	0.115530804
18	0x3d44e080	0.048065662
19	0xbdf1c0b6	-0.11804335
20	0xbdde10aa	-0.10843022
21	0xbdf44e2c	-0.119289726
22	0xbd1765a0	-0.03696215
23	0xbba930c0	-0.005163282
24	0xbdd68c46	-0.10475974
25	0x3c31a890	0.010843411
26	0x3dfda606	0.12385182
27	0xbcedceb0	-0.02902922
28	0x3df2127e	0.11819933
29	0xbdb2555a	-0.08707686
30	0xbdf8a970	-0.12141693
31	0x3dbf1dae	0.09331833

fc3.weight f4 [1, 32]
0	0x3d41f870	0.04735607
1	0x3e14ae57	0.1451963
2	0x3c3d7e70	0.01156579
3	0x3e2d8c8d	0.16948147
4	0x3e2044c9	0.1565124
5	0x3e21ff5f	0.15820073
6	0xbd6b071e	-0.057379834
7	0xbd3ffefc	-0.04687403
8	0xbe17eba5	-0.14835985
9	0xbe02786c	-0.1274125
10	0x3d988bde	0.074485525
11	0xbe007da2	-0.12547925
12	0x3d33b7f8	0.04387662
13	0xbbbd2400	-0.005772114
14	0xbe1e88d9	-0.1548189
15	0xbbe2d500	-0.0069223642
16	0xbdf54e84	-0.11977866
17	0xbcb6efe8	-0.022331193
18	0xbdf6a850	-0.12043822
19	0xbe2fce79	-0.17168607
20	0x3d53e918	0.051735967
21	0xbd8b492c	-0.06801066
22	0x3c39b810	0.011335388
23	0xbd9b5f55	-0.075865425
24	0x3e0ce4c9	0.1375915
25	0x3d49ae28	0.049238354
26	0xbe1399a9	-0.14414085
27	0x3e1ef28d	0.15522213
28	0xbc4212f0	-0.011845335
29	0xbdd96260	-0.10614467
30	0xbbc96aa0	-0.006146744
31	0x3dac8922	0.084245935
